ssc_network/pretrained_models/weights/PALNet.pth.tar (torch_old, 935361 bytes, 68 tensors)

conv2d_depth.0.weight f4 [6, 1, 3, 3]
00000000: 6472 4d3d a198 503e cb1a 453e 513b 5abd
00000010: 3d69 8e3e f27b 5e3e dfc3 dc3c 10de b63e
00000020: 2867 9c3d 3cfd 9fbb 5cb2 1a3d fa5c b9bc
00000030: de29 e73d 6b0e 3cbe 9464 f5bd 7c75 33bd
00000040: 9369 6b3d 0753 07be 481d 9d3e 38d1 093e
00000050: 2e88 8f3e e694 1ebd 3604 ab3d 5d4b 1e3e
00000060: 8a77 463e 22a2 173e f00f 2a3e 63a7 07be
00000070: cbb6 57be 5e64 44be 18aa 33be 8d4c a73d
00000080: 5754 bdbd d068 91bd 0907 3f3e 16d3 32be
00000090: 5786 e3b9 2f7f c93d 0b0f 1b3e 17f9 4bbd
000000a0: cf2b 953c ef03 07be c819 49be 49ca 49be
000000b0: 1b7f 7b3d 4467 9ebc 3843 0c3e c41e 013e
000000c0: b193 af3e 9aea 713e a64b ac3e 9b58 c63e
000000d0: 273c a33d d6eb b93e
0.05015792 0.20370723 0.19248502 -0.053279225 0.27814665 0.21726969 0.026948867 0.35716295
0.07636863 -0.004882483 0.037767753 -0.022627342 0.112872824 -0.18364875 -0.119820744 -0.043813214
0.05747373 -0.13215266 0.30686402 0.13458717 0.28033584 -0.03871622 0.083504125 0.15458436
0.19381538 0.14807943 0.16607642 -0.13247447 -0.21065824 -0.19178912 -0.17545354 0.08168898
-0.09244602 -0.071000695 0.18655027 -0.17463335 -0.00043396905 0.098387115 0.15142457 -0.049798097
0.018209366 -0.13185094 -0.19638741 -0.19706072 0.061400514 -0.01933635 0.13697517 0.12609392
0.34292367 0.2362465 0.33651465 0.38739476 0.079704575 0.3631274

conv2d_depth.0.bias f4 [6]
00000000: c5a5 b93e a492 c5bc 64a6 fd3c 327c bebd
00000010: 2483 553e 5abd d23e
0.36259285 -0.024117775 0.03096313 -0.09301032 0.20850807 0.4116009

res_depth.0.weight f4 [3, 6, 1, 1]
00000000: 92fa b33c 002c 613e a2b6 923c e91b 55be
00000010: a56a 68be a57d aa3d dd03 a53d d598 91bd
00000020: b129 103d 469b edbd 7e04 0a3e d73b 80bd
00000030: d7fa 88bd 0a02 883d f0d7 793d 8dd6 813e
00000040: 5787 143e 92d8 d1bd
0.021970067 0.21989441 0.017909352 -0.20811428 -0.22696932 0.08324746 0.080573775 -0.071092285
0.03519601 -0.11601882 0.13478276 -0.062614135 -0.06688469 0.06641014 0.06099695 0.25359002
0.14504753 -0.10246386

res_depth.0.bias f4 [3]
00000000: f688 15be 2f57 40be 5ce0 723e
-0.14603028 -0.18783258 0.23718399

res_depth.2.weight f4 [3, 3, 3, 3]
00000000: 359a f53d 010f 9b3d 66de 613d 337e cc3d
00000010: 0ff7 d53d 2132 d9bd 8278 fb3c c96b 883d
00000020: ff78 123d eda2 863c f9c3 b1bd d313 0e3d
00000030: 7249 38bc 2103 febd 2bb6 913d a24f 753d
00000040: 3d09 c1bb a38c 9f3d d3d0 31bd 3bf8 eabd
00000050: 35da 213d ea62 98bd 807e 95bd a9c0 f8bd
00000060: 90d2 9e3d 8b9b 86ba 7f9c da3d 11e6 a6bd
00000070: deb2 b53d a77d 3b3d 5213 9a3d 2b1e 6e3d
00000080: 07dd e1bd 3ef9 bc3d 0bd9 fcbd db8b fbbb
00000090: e899 e8bd 0f0c 98bb bf0b e8bd 95f3 a73d
000000a0: 1efa 43bd 7f74 dc3d dd0c 4fbb 1511 da3b
000000b0: 8beb 67bd 419e 32bd 799b 21bd c8ed debd
000000c0: 383c 4fbd 1ecc aabd 8172 e7bd 952d e0bd
000000d0: 9114 4fbc 57b0 973d 9b04 91bd 8a75 a3bd
000000e0: 6bac f8bd 9154 9ebb 6370 a0bd b1a8 00bd
000000f0: 7021 603d 754c d3bb 5590 093d e036 fcbd
00000100: 425a c1bd ab9f e0bd 9603 59bd b40a 60bd
00000110: 1ea2 91bd ccd7 9cba 53c1 3dbd 1502 703d
00000120: 3761 87bc 581b fa3d 97f6 d4bd 6afb 62bc
00000130: d617 bb3c eb19 e73d ea78 ecbd ab5e 703d
00000140: 749f 093d
0.11992303 0.07571221 0.055143736 0.09985008 0.10447513 -0.106052645 0.030697111 0.066611834
0.035759922 0.016435111 -0.08679957 0.034686875 -0.0112479795 -0.124029405 0.07114824 0.059890397
-0.005890994 0.07790496 -0.04341204 -0.114731275 0.03951474 -0.07440741 -0.072995186 -0.12146122
0.07755005 -0.0010269744 0.106743805 -0.081493504 0.08872007 0.04577413 0.07523216 0.05813424
-0.11028486 0.09227227 -0.12346085 -0.007676584 -0.1135748 -0.0046401094 -0.113303654 0.082007565
-0.047845952 0.10764407 -0.003159336 0.0066548684 -0.056621116 -0.043607954 -0.03945491 -0.10885197
-0.05059454 -0.083397135 -0.11301137 -0.10946194 -0.012639181 0.07406681 -0.070809565 -0.07981403
-0.12142261 -0.0048318584 -0.07833936 -0.031410877 0.05471939 -0.0064483234 0.03358491 -0.12315154
-0.094410434 -0.10967954 -0.052981935 -0.054697707 -0.071109995 -0.0011966168 -0.046326946 0.058595736
-0.016525848 0.12212247 -0.10398596 -0.013853887 0.022838514 0.1128424 -0.115465 0.058684032
0.033599332

res_depth.2.bias f4 [3]
00000000: 2c6a e43d 5c7c f8bd 663b ddbd
0.11153063 -0.12133095 -0.10802345

res_depth.4.weight f4 [6, 3, 1, 1]
00000000: c05f 33be 9263 e4bd 8017 01be df1c 9fbd
00000010: abca 8e3e d5d5 913e 8682 f53d 0a31 17be
00000020: 5168 0c3e 9599 913e 7e2a b83d 8f0b bd3e
00000030: 5908 e23d da77 9dbe 6190 033d cf7e 28be
00000040: e657 8c3e 880f aebe
-0.17516994 -0.11151804 -0.12606621 -0.077691786 0.27888998 0.28483453 0.11987786 -0.147648
0.13711669 0.28437486 0.0899248 0.3692288 0.110367484 -0.30755502 0.032120112 -0.16454624
0.2741081 -0.33996224

res_depth.4.bias f4 [6]
00000000: ee5d d53d dd5b e2bd 9659 f7bd b9c5 0d3f
00000010: 10aa 8d3e 0737 ef3e
0.10418306 -0.11052678 -0.12077634 0.55379826 0.2766881 0.4672167

pool1.weight f4 [8, 6, 7, 7, 7]
00000000: 5465 a73a eb20 833c 93dc 853c 0bd7 f3bb
00000010: 2416 133c 0ea7 ca3c b249 663d ab76 b53c
00000020: 5ca5 e23c 018f 98b9 0d14 cdbb dc46 e83b
00000030: be97 0b3d a15f 3a3d d1d5 18bc 77b1 033d
00000040: 0d9e 8f3c 8461 c53c fbd0 143c 9ec1 483d
00000050: 7705 c93b aa24 9cbc 44f5 023d b291 5a3b
00000060: 0fbd 27bc 1166 273c ac67 d23b cd5c c0bb
00000070: 0654 6c3c 875b 733c 1cb2 b5bc 3b85 e2bc
00000080: dbb1 dfbb 5bf1 b03b 1dfa 4b3c 187a c83c
00000090: ce6d 4137 6bc5 4c3c 12fc 2b3c 571c 7f3c
000000a0: 8f2c a53c 7583 1eba e549 043d b112 923c
000000b0: ce06 b73c 0e55 e03c 133f b13c 705e 593d
000000c0: bfcf 043d 5ba6 413d b6f7 453d a26b ee3c
000000d0: 3345 ce3b 522a 453d 8094 043d ad7c b23c
000000e0: 507a ee3c d837 5a3d 7fe2 0f3d 3d3b 993c
000000f0: 92cb a13b cb0a 4f3d 2387 323d a2ec 0c3d
00000100: 91c0 933c 0984 dd3b 11ab 683c ede9 803c
00000110: 2397 463d 9393 f33c b58f de3c f968 c53c
00000120: fb60 0db9 6a7b f4bb 57bf 383c 7345 383c
00000130: 8bd7 013d 814e 0b3c 5250 c13c fc16 d93b
00000140: 44f6 923c 57e9 9e3b fd5f 5f3c 8915 2f3c
00000150: 4f19 383c e533 a43c c9c3 8d3c 9cbe b7b9
00000160: 99b9 cd3c bc55 083d 0d1b 623c 1739 0b3d
00000170: af31 bb3c 4ae3 f13c 5d83 e33c 1ba5 f03c
00000180: 537a 493d f16a a23c d91a 41bb 44a0 833c
00000190: 80c9 38bc bac2 0bbd 22b1 593c 81f0 943b
000001a0: fecf bc3c 9763 403c 2106 f33c 4c3c 09bd
000001b0: f0d2 b83b bfc7 903b cb86 b83b 57e3 edbb
000001c0: 6215 8abc 33be 17bb 7086 a8bc 5b44 07bd
000001d0: 45d4 6a3c 2801 ffbb d90a de3c 97f1 db3b
000001e0: cca0 3abc 2dc4 a43b e6b6 a4bc 44bc 3f3c
000001f0: 1aa1 583c c47e c3bb 422c 0fbc 0e7c 5fbc
00000200: b596 0bbd 8546 23bb ac1b debc 463b a43c
00000210: 93fe 6bbb d7b5 59bc 671e 613c 36c3 81bc
00000220: 84e8 9cbc be13 0cbd 6dd9 e43b cfcb a03c
00000230: e7b6 1dbb 4109 0a3d f48d ad3b 1151 cc37
00000240: 92ef 833c f3db 163d 91ef 113d 28dd d03b
00000250: ac87 c6bc b076 debc 5b22 8c3a 0adb 7bbc
00000260: 791f c2bb 8a65 593c d3af a4bb 320e a7bc
00000270: 9c7a 02bd 5021 65bc fb22 4d3c 7ad4 c63c
00000280: 8f69 4f3c bf09 833c b8ae ca3c e589 343c
00000290: 7722 8fbc 5c98 32bc 0b92 4a3c 4740 51bc
000002a0: 9fb0 5ebc 9cf3 d93c 9068 11bc 6511 9d3c
000002b0: 9972 7aba 53cb ae3b 9458 993c 9398 43bc
000002c0: b9c7 92bc 2aaf c1bc 749b 283b 7f3d 0bbc
000002d0: 99e6 133c 3350 96bc 4c6c a23c 404a 4d3c
000002e0: dcdc 36bc b00f 3639 69e3 ffbb 7773 0c3b
000002f0: 32ce 1ebc 5554 5fbc 9256 3a3c 8ee6 f3bc
00000300: dcfd 053c f5c7 603c e727 ed3b 50c2 a83b
00000310: b5d4 ab3b 1045 633b 925d 42bd c879 96bc
00000320: cd60 9abc 17c6 553c 6c1d 8a3c 2e48 02bd
00000330: 085b 1bbc 9bdc ddbc 4604 bc3b 4e55 603c
00000340: 004b 2f3d 5de0 203c a2c5 b8ba 6b96 af3a
00000350: f6fb 483c b5db 043c 9bed 0ebc 7be7 cc3c
00000360: f38d 2abc c0e8 313c 2bd6 9c3c 2040 3abc
00000370: 5aec 05bc 5d46 aabc 76cb 22bc fc10 b63c
00000380: 61e7 463c 3d4a a1bc ac73 4d3b c1fc f13b
00000390: 8c9e 373c 1f30 043b eb63 00bb 3cbd 4d3c
000003a0: 0b1d 0eba 7e00 82bb 99fa d5bc 1c90 dbbc
000003b0: 7e50 d53b 040d b63c 666d bcbc 7909 83bb
000003c0: b5b7 22bc e515 c5bb 7c64 cbbc 4b1a c03c
000003d0: fba4 873c ff96 0e3d c7ca b63c a6b9 8aba
000003e0: 7a37 bc3c a14b bb3b 9c5a 293d 11e2 a93c
000003f0: 0772 1d3c 4585 a13c 1f69 3dbb 5cb3 773c
0.0012771287 0.016006907 0.01634053 -0.0074414066 0.008977447 0.024737861 0.056222625 0.022151312
0.02766674 -0.00029098245 -0.0062584938 0.007088525 0.03408026 0.045501355 -0.009328322 0.032151666
0.01753142 0.02409435 0.009083028 0.049012773 0.0061346847 -0.019060452 0.031972185 0.0033351001
-0.010237946 0.010217206 0.00642105 -0.0058704377 0.01442433 0.014853365 -0.022179656 -0.02765142
-0.006826622 0.0053998656 0.012449768 0.024472281 1.1529262e-05 0.01249824 0.01049711 0.015570722
0.020162849 -0.00060468103 0.032297034 0.017831178 0.022342112 0.027384307 0.021636521 0.05306858
0.032424685 0.04727779 0.04833194 0.029104058 0.0062948703 0.048136063 0.032368183 0.021787966
0.029111058 0.053275913 0.035128113 0.018705005 0.0049375976 0.050547402 0.043585908 0.034405358
0.018036159 0.0067601246 0.014200942 0.015736545 0.04848398 0.029733455 0.027168134 0.024097906
-0.00013482936 -0.007461001 0.011276088 0.011247027 0.0316997 0.0085026035 0.02359787 0.0066250544
0.017939694 0.0048495936 0.013633725 0.010686287 0.011236503 0.020044276 0.017305272 -0.00035046495
0.025112914 0.033284888 0.013800395 0.033989992 0.02285084 0.029527325 0.0277726 0.029375603
0.049188923 0.019826384 -0.0029465465 0.016067632 -0.01127851 -0.034121253 0.013286861 0.004545272
0.023048397 0.011742494 0.029666008 -0.03350477 0.00564038 0.004418343 0.005631303 -0.007259767
-0.0168559 -0.002315414 -0.020571917 -0.033024173 0.014332836 -0.0077821203 0.027104782 0.0067121494
-0.011390876 0.005028269 -0.020106744 0.011702601 0.013222003 -0.0059660394 -0.008738579 -0.013640417
-0.034079272 -0.002491386 -0.027112804 0.020047795 -0.0036009892 -0.013287983 0.013740159 -0.015840154
-0.01915384 -0.034198515 0.006983927 0.019628434 -0.0024065317 0.03370023 0.005296463 2.4356445e-05
0.016105447 0.036830854 0.03562886 0.00637402 -0.024234615 -0.027156204 0.0010691391 -0.015372047
-0.005924162 0.013268838 -0.0050258427 -0.020392511 -0.03185521 -0.013984993 0.012520547 0.024271239
0.0126594445 0.015995858 0.024741516 0.011019205 -0.017472489 -0.010900583 0.012363921 -0.012771673
-0.013591914 0.02660542 -0.008875027 0.019173333 -0.00095538195 0.0053342967 0.018718995 -0.011938232
-0.0179175 -0.023643095 0.0025727423 -0.0084985485 0.009027147 -0.018348789 0.01982703 0.01252991
-0.011161055 0.00017362717 -0.007809092 0.0021431127 -0.0096927155 -0.013630946 0.011373179 -0.029773023
0.008178201 0.0137195485 0.0072374227 0.005150117 0.0052438625 0.0034678616 -0.047452517 -0.018368617
-0.018844986 0.013047717 0.016859733 -0.031807117 -0.009482153 -0.027082732 0.005737814 0.013692213
0.042796135 0.009819117 -0.0014096985 0.0013396268 0.012267103 0.008109023 -0.008723642 0.025012722
-0.01040982 0.010858715 0.019145092 -0.011367828 -0.008174026 -0.020785505 -0.009936204 0.022224896
0.012140126 -0.01968872 0.0031349463 0.007384867 0.011207234 0.0020170284 -0.0019590806 0.012557324
-0.0005421198 -0.003967344 -0.02612047 -0.026802115 0.0065098396 0.022223003 -0.023001384 -0.003998932
-0.0099314945 -0.006014573 -0.024828188 0.023450037 0.016558161 0.03481197 0.022313489 -0.0010583892
0.022975672 0.005715803 0.041346177 0.02073768 0.009609706 0.019716868 -0.0028901768 0.015118446

pool1.bias f4 [8]
00000000: c48e 943d a539 78bd 7c30 a43d fdba 2abc
00000010: e1bf 2e3e 389d 39bd b02e 65b8 9721 55bd
0.07253793 -0.06060185 0.0801706 -0.010420558 0.17065383 -0.04531595 -5.4641336e-05 -0.052033987

reduction2_1.weight f4 [16, 8, 1, 1, 1]
00000000: 8850 2bbe 1e28 c1bc 5623 db3d d791 f73d
00000010: 44e7 d7bd 281f 08be df63 163e 7bb3 24be
00000020: 0db7 07bd 5ff3 17be e05b 9fbd cd97 8f3e
00000030: 9b12 bb3e cb78 ea3b 4f81 163e e173 a1be
00000040: d41d bdbe 4874 9abe 3766 99be 8b09 7a3e
00000050: 7984 75be f911 98be 5d51 d73d 3776 37be
00000060: c291 d3bd c75c a23e 1019 963d 3115 fbbd
00000070: efe2 6dbe d607 373e a142 a43e c856 4c3e
00000080: 73e0 b4bc d978 5ebe cdf1 083e f1b7 fdbd
00000090: 542c 60be 754c 093e 4765 8c3e aa0b 74bd
000000a0: 4697 76be 8cf4 483e c6a1 363d 54ea 1d3e
000000b0: 864b 9f3c ccb3 4ebe 4cf2 9f3d 8cc6 7a3e
000000c0: 6763 eebe 77fd 563e 1b37 c13e ce7e 943e
000000d0: 8a61 5ebd db58 593d 9bbd 963e 6a84 92be
000000e0: 494e 773e e3c0 983e e3c1 93be 57ef 88be
000000f0: e5a6 1a3e 0a59 8cbd 9764 753e fff2 98be
00000100: 1d80 273d 7342 66bd bc90 633e bb01 ca3b
00000110: 0646 bdbd 6c1d c93d f3dc 8b3e fa84 33bd
00000120: 0ff2 1ebd 4e63 083e e2a9 3ebd 02b2 29be
00000130: 9885 87be 3f92 75be 457f 943e bce1 48be
00000140: 285d 243e 6910 53be 033e 4fbe 27e7 10be
00000150: 5b29 c0be 3547 1c3d bf13 913e 7038 0fbe
00000160: a55d 393e 2475 8fbe ffdd 503e e280 8d3d
00000170: 5d6e bb3e 5198 5abe af50 4fbe a735 c93d
00000180: 316f fa3d ce8e 313d 0831 58be fab2 44be
00000190: ac84 99be ab40 8d3e 80e5 54be 1549 533e
000001a0: 35d6 d43b 868d 813e 1550 8fbe f156 59be
000001b0: 9510 a6be 7789 6f3e 1151 823e 6f82 943e
000001c0: 78ff 463e 98c3 7fbe fc1b 103b 8017 c6bd
000001d0: 3b92 90be 3fa7 8fbe d2b0 393d 452d 8b3d
000001e0: e9eb 0cbe 41ff 3b3e 3cac b1bd 16d3 f7bd
000001f0: f84a 283e 7f2b 8fbe 566c 7c3e d101 85be
-0.16729939 -0.0235787 0.10700099 0.120883636 -0.10542157 -0.13293135 0.14686535 -0.16084091
-0.033133555 -0.14838932 -0.07781196 0.28045502 0.36537632 0.007155513 0.14697765 -0.3153372
-0.3693682 -0.3016684 -0.29960796 0.24417703 -0.23976316 -0.29701212 0.10513566 -0.17916189
-0.103305355 0.31711408 0.07328999 -0.12259901 -0.232311 0.17874083 0.32082084 0.1995498
-0.022079682 -0.21725787 0.1337349 -0.123886 -0.2189191 0.13408072 0.27421018 -0.059581436
-0.24081144 0.19624537 0.044587873 0.1542142 0.019445192 -0.20185775 0.07809886 0.24489802
-0.46560213 0.20995127 0.37737355 0.29002994 -0.05429224 0.053063255 0.29441532 -0.2861665
0.24150957 0.2983466 -0.2885886 -0.26745102 0.15102728 -0.0685292 0.23964153 -0.2987289
0.040893663 -0.056215715 0.2222318 0.006164757 -0.092418715 0.09820065 0.27317008 -0.04382799
-0.038805064 0.13319132 -0.04654873 -0.16571811 -0.2646911 -0.2398157 0.2900335 -0.19617361
0.16051161 -0.20611729 -0.202385 -0.14150678 -0.37531552 0.038153846 0.28335378 -0.13986373
0.18102129 -0.2801906 0.20397185 0.06909348 0.36607638 -0.21347167 -0.20245622 0.098246865
0.12228239 0.04334908 -0.21112454 -0.19208899 -0.29984033 0.275884 -0.20790672 0.20633347
0.006495262 0.25303286 -0.27990785 -0.21224572 -0.32434526 0.23392282 0.25452474 0.29005763
0.19433391 -0.24976957 0.0021989336 -0.09672451 -0.28236565 -0.28057286 0.045334645 0.06795744
-0.13761868 0.1835909 -0.08675429 -0.12100808 0.16434848 -0.27962872 0.24650702 -0.25977948

conv2_1.0.weight f4 [8, 8, 1, 1, 1]
00000000: 6e42 a83e 594c 723e 744b 2d3e 2f58 db3d
00000010: f206 20be e5ab 563e 67dd 88bb 6b64 a3be
00000020: 10e2 d6bb 9188 85bd 8fe1 e53e e99d babe
00000030: 000b ef3e 7ba7 f23d 2d85 f63e bcd2 553e
00000040: d3d1 9d3e 8f84 4dbd bdfb 003d 6cb4 083e
00000050: 1514 913e 744a b7be f14d e63e 14dc a4be
00000060: ee4e c4be 463d 863e 9d7a 3b3d b646 b93d
00000070: 1ba8 14be c838 363e 74a7 25be b3fb d6bd
00000080: 381b 073f 832e 6fbd b905 ae3e 9c96 a6bd
00000090: d750 853e f7c5 8d3d 2785 25be f100 53be
000000a0: a5d4 a83e 075b c73e 760f 2cbe 05aa 7a3c
000000b0: 1705 aa3e 3190 8e3d 3289 7c3e 68e1 bbbe
000000c0: 99a2 85be 5679 c93d ee94 2f3e 9a9a b9be
000000d0: a525 dc3e 55a3 063e 2cf3 2bbe adc3 32be
000000e0: f0eb 55be e655 c93e 5514 62bd c5fd b83c
000000f0: 010d 80bc 7838 1fbe 2282 debc ea0f 633d
0.32863182 0.23661937 0.16923314 0.10710179 -0.1562765 0.2096401 -0.004176784 -0.3191255
-0.0065577105 -0.065201886 0.4489865 -0.364486 0.4668808 0.118483506 0.4814848 0.2088117
0.30824146 -0.050175246 0.031490076 0.13350075 0.28335634 -0.3579899 0.4498134 -0.32199156
-0.3834147 0.26218623 0.04577123 0.0904669 -0.14517252 0.17795098 -0.1617716 -0.104972266
0.5277591 -0.058393966 0.3398874 -0.08134195 0.26038238 0.069225244 -0.16164075 -0.20605828
0.32974735 0.38936636 -0.16802773 0.015299325 0.33207008 0.06961096 0.24661711 -0.3669541
-0.26100615 0.09837596 0.17146656 -0.36250764 0.4299747 0.13148244 -0.16791981 -0.17457457
-0.20890784 0.39323348 -0.05519517 0.022581944 -0.0156312 -0.15548885 -0.027161662 0.0554351

conv2_1.0.bias f4 [8]
00000000: e2df 37be be0c db3d 87eb 1fbf 275d 0bbe
00000010: e7c0 ec3d 6192 dabe a4d4 303c 60a9 89bd
-0.17956498 0.1069579 -0.6246876 -0.13609754 0.11560231 -0.42689803 0.010792885 -0.06721759

conv2_1.2.weight f4 [8, 8, 3, 3, 3]
00000000: 9b49 84bd 6e39 bfbc 03cb 4dbd fd9b 40bd
00000010: ec04 9e3d a066 35bd e78f 4dbb d877 57bd
00000020: f80c 823d 06c4 ab3c a210 1c3d f4a2 16bd
00000030: 8069 893d c186 813d a91d 2dbd 2303 b53b
00000040: 4e6c a43c 8cac 0b3d dd37 f63b 4703 96bd
00000050: 0789 ed3b ee81 213d af63 233c 2486 94bd
00000060: eead 4c3d 9b8f 01bc 5e3d 2d3d 72c6 03bb
00000070: a431 9fbc 83f7 70bb befb 413c 2a09 3dbd
00000080: 4c26 533d 0f58 163d be48 6bbd 2ec8 a8bd
00000090: f492 05bc bfbd 973d 2411 fc3d 8a3b 563d
000000a0: a1da b5bc cb82 a53d 458d ed3d 10b8 ce3c
000000b0: ba5a a93d 6eb6 6d3c ad69 6c3d e22e acbd
000000c0: 5d47 66bd 2840 02bd 712b 093c 8cc4 533c
000000d0: 66eb 253d 4f97 30bc 5779 0abd 52fc 98bc
000000e0: d84c 03bd d9e6 43bd be74 dbbc ffa5 98bd
000000f0: bfd0 e43c 4071 c3bd a1aa 8dbd a272 af3b
00000100: 8918 f33c 0ef6 843d 42e1 633c a1b3 9f3c
00000110: c2b2 a3bc 4a2c 403c 2458 463d a121 953d
00000120: 6da1 b2bd d91e e7bd 0928 7dbd 8b3f 983c
00000130: 3518 21bd ee08 933c 3e8d 9abd 09c6 843c
00000140: ca87 e9bd 83b3 7d3b 00bc 233d 4535 febc
00000150: e78e 8f3d ec3c d33c 2ce8 81bd b726 3d3c
00000160: ebb6 debc 42bc 47bd 5b23 69bd 009e 3abd
00000170: f0fb 3bbc 0dec 71bc 2576 56bd 72ec 903d
00000180: 02c6 11bd 74df 803d db23 483d 4ebb ae3c
00000190: 0bde 853d f58e 45bd 09dd a8bc d3bb 40bd
000001a0: 1699 943d 1b57 963c a02e 81bd 1c6a 17bd
000001b0: ee9a 66bc 6c4d 73bd 19f7 11bc a4c3 8cbd
000001c0: c6fb 173c 4642 453d a9fe bf3c c57a b33c
000001d0: 1237 81bd 37fb 1e3d d01f 9d3c 6720 063e
000001e0: cfa5 553d fdcf bc3d 6ab9 f63d b955 dc3c
000001f0: be3a f73d 03a8 193d 9fdd 83bd 36fc 2ebd
00000200: e2ce 87bd 68fc 153d a140 04bd cf5e 11bd
00000210: 3a0f e8bd 6858 aabd afa2 49bd e722 a43c
00000220: f5a8 b7bd 6917 cfbd f5da 7ebd 710c cfbd
00000230: 3d42 58bd 4068 4bbc e05e 29bb 5d04 2ebd
00000240: 189c 2abc 9500 083d 9b76 e03c 16be 563d
00000250: 1233 613d 8704 313d f55a 0ebd cbfa f3bc
00000260: 79b4 04bd 2884 00be a78f ecbd c101 42bc
00000270: 6d54 83bd 2911 05bd ddc4 06bd 054f d9bc
00000280: f911 f0bd 0241 0fbc d431 6a3d 85ce fbbb
00000290: 36dc 2ebd 111d 973c d2b8 99bc 39aa 1f3c
000002a0: db5e 2bbd 516e a5bd a3d4 fdbc f1c2 bdbc
000002b0: 94cd 953c d37c a03d 7c75 703d 1c39 713d
000002c0: 5ded 8d38 0fe4 ae3d 4d97 3cbd 608c 933d
000002d0: 9ca7 8dbd 8274 ae3c bab7 153d 9b79 9ebd
000002e0: a6cf 35bd b602 8d3c 2a7c 0f3c d467 28bc
000002f0: eea4 8abd 9d7a 18bd 8d86 24bd 1e9b 0fbc
00000300: 06b6 45bd 85d5 abbc 7cec e4bb 1382 01bd
00000310: 57d3 933d d816 4c3d bcfd b13c 7bac 8d3d
00000320: 4b05 eb3c 49f3 9abd 3f45 af3b caba 6fbd
00000330: f92f 59bd daf3 21bc 2d8d 5e3c bf0a 95bd
00000340: 4854 883d a996 123d a6ef 3c3d bfdf c0bc
00000350: 2712 97bc f13f 39bd 8c19 703d a525 46bb
00000360: 3495 64bd 4f59 2c3d b7f2 43bd 501d 843d
00000370: 5fba fdbc 27a9 ee3c 9867 403d 3bfb 823d
00000380: 0fec 85bd 4dc6 3cbd a832 533d e9c5 5b3d
00000390: f624 61bd dbe7 3cbd cd87 813d 82c5 25bc
000003a0: bcc7 1d3d e474 223c 8041 97bd d9ac 1dbd
000003b0: 00f1 3ebb 55d7 2dbd 9211 863d 86f9 85bc
000003c0: 81a6 89bd 638c 11bd 2640 793a fd6b 513d
000003d0: 5473 bb3d 77b8 b53d dfd6 033c 2c10 f13b
000003e0: 5b3c 5a3d 47e2 c5bc 9e61 ce3d 17ef 123e
000003f0: 4d40 7b3b 5f73 9abc 6c7f 623d 9a4c bcbd
-0.06459352 -0.023342814 -0.050242435 -0.047023762 0.077157825 -0.044287324 -0.003136629 -0.052604526
0.0635013 0.020967495 0.0381018 -0.036776498 0.06709576 0.063245304 -0.042264614 0.0055240556
0.020071175 0.0341001 0.0075139836 -0.07324844 0.007249001 0.03943055 0.009972497 -0.07252148
0.04997056 -0.007907773 0.042294852 -0.0020107296 -0.01943285 -0.0036768622 0.011839805 -0.046151318
0.051550195 0.036705073 -0.05744242 -0.08241306 -0.008152712 0.07409238 0.12307957 0.052302875
-0.022198977 0.080815874 0.11599211 0.025234252 0.08269258 0.014508827 0.057717968 -0.0840738
-0.0562204 -0.031799465 0.008372174 0.012925278 0.040507697 -0.010778262 -0.033807125 -0.018675003
-0.032055706 -0.047827575 -0.026789065 -0.07453536 0.02793157 -0.09543085 -0.069173105 0.0053542415
0.029674785 0.06492244 0.013908686 0.019494833 -0.0199827 0.011729309 0.0484239 0.07281805
-0.08722196 -0.112851806 -0.06180576 0.018584987 -0.039329726 0.017948594 -0.07546471 0.016207712
-0.11402853 0.0038711734 0.039974213 -0.03103126 0.07009678 0.025785886 -0.063431114 0.011544875
-0.027186831 -0.04876352 -0.056918483 -0.045560837 -0.011473641 -0.014765752 -0.052358765 0.07076348
-0.035589226 0.0629262 0.04886232 0.021329548 0.06536492 -0.048232038 -0.02061321 -0.047054123
0.07255761 0.018352082 -0.06307721 -0.03696643 -0.014075024 -0.059400007 -0.00890901 -0.06873253
0.009276336 0.048158906 0.023436861 0.021909127 -0.06309332 0.038813796 0.019180208 0.13098298
0.05216008 0.09219358 0.12047084 0.026896344 0.12071751 0.037513744 -0.06438755 -0.042720996
-0.06631257 0.036617666 -0.032288197 -0.035490807 -0.11331029 -0.083176434 -0.049227413 0.020036174
-0.08967773 -0.10111887 -0.062220532 -0.10109795 -0.052797545 -0.012414992 -0.0025843903 -0.04248463
-0.010413192 0.03320368 0.027400305 0.052427374 0.054980345 0.04321721 -0.034754712 -0.029782673
-0.032398675 -0.12550414 -0.11550837 -0.0118412385 -0.06412587 -0.03248707 -0.032902587 -0.026526937
-0.11722178 -0.008743526 0.057176426 -0.007684531 -0.04269048 0.018446477 -0.018764887 0.009745174
-0.041838508 -0.08077682 -0.030985182 -0.023164244 0.018286504 0.07836308 0.05870579 0.058892354
6.767616e-05 0.085395925 -0.04604273 0.07204509 -0.069167346 0.02129579 0.03655217 -0.07738038
-0.044387482 0.017213207 0.00875763 -0.010278661 -0.06769739 -0.037226308 -0.04016738 -0.00876501
-0.048269294 -0.020975837 -0.006986199 -0.03161819 0.07218044 0.049826473 0.021727435 0.06917664
0.028689047 -0.07565934 0.005348831 -0.058527745 -0.053024266 -0.009884799 0.013583464 -0.0727744
0.066567004 0.035788212 0.046126984 -0.02354419 -0.018441273 -0.045226995 0.058618113 -0.003023484
-0.055806354 0.04207736 -0.047838893 0.064509034 -0.030972658 0.029133392 0.046973795 0.06395575
-0.06539165 -0.04608755 0.05156198 0.05365554 -0.05496689 -0.046119552 0.0632473 -0.01011789
0.03852056 0.009915564 -0.0738554 -0.03849492 -0.0029135346 -0.042441685 0.0654632 -0.016354334
-0.06721211 -0.035534274 0.0009508155 0.051128376 0.091528565 0.088730745 0.008046835 0.007356664
0.053280216 -0.024155749 0.10077213 0.14349018 0.0038337887 -0.018853841 0.0552973 -0.09194298

conv2_1.2.bias f4 [8]
00000000: abe3 d9bd 06cc 24bd c83c 373d d35a 3bbd
00000010: 98d8 3cbe 1dfe 5fbd 8591 aabe 8df7 b4be
-0.10639127 -0.040233634 0.0447357 -0.045740914 -0.18441999 -0.0546857 -0.33314148 -0.35345116

conv2_1.4.weight f4 [16, 8, 1, 1, 1]
00000000: 0da8 313e 44c7 aa3d c3f9 a0be 094e 593e
00000010: 6cb2 39bd 9bc8 aebd 6ece 72be e5c9 4ebe
00000020: e947 f63d 2a8b 8a3e 7093 613e c7b7 d13e
00000030: 1a13 72bd b5ec 533e f852 543e cabe bf3e
00000040: be8b 6d3e c5cb 853c 9488 703c 59fb 913e
00000050: 78cf 413e a709 1fbe b3f2 dd3c 1219 353e
00000060: 7504 4d3e 15a6 673e 875e 733c 812c b63d
00000070: 628e 33bd c378 a93e 0e92 c9bd c9fc 84be
00000080: ec15 963d 5013 8ebd 5644 75be d8d1 983e
00000090: 89af 90bd 26a4 883d e749 593b f57a 96be
000000a0: 3136 8f3e e188 c53d 14e4 153d 6a59 233d
000000b0: 3301 763e 204c 853d 267e 04be 85a9 933e
000000c0: daf9 863e de04 8d3e 9113 bd3c b4ae 0f3e
000000d0: 9105 2a3e 4c54 173d c219 b63d 958a 78be
000000e0: 6499 af3e 3436 973e 292b 76bd cef5 d8bd
000000f0: f882 af3e 2703 a9be 8988 81be b6a3 883c
00000100: 8964 a4bd 6787 083d 5ed0 83be 98fe 723e
00000110: ba3f 9fbe f7a6 14bd c8c7 a1be 7fd5 083e
00000120: 119c 5a3e b43f 69be 1594 e1bc a9d7 783d
00000130: bb29 8fbe 1857 583e 4b22 7dbb b4da 84be
00000140: 400d 28bd ee05 843e 9fb6 65be 7eac 13be
00000150: 8025 63be abbd 1c3b 0194 71be 3050 833e
00000160: 261d ea3c 36a6 0e3e c32d 25be 5ded 64be
00000170: 6e90 193e 6f4f e83d 2135 ba3e 6487 ee3d
00000180: 60ff 9e3d 5661 61be e84a 243e 9522 06be
00000190: 0a95 6ebe dfe2 923e 6340 3cbe 960a 3bbe
000001a0: 7751 47bd e412 e33d 85dd a4be 7e23 6fbe
000001b0: 358d 553e 46f3 9e3e db7b 273e 7b0e b8be
000001c0: f7d5 1ebe 605f 983e 5da4 2cbe 2af2 91bd
000001d0: cb1d 533e eff6 1e3d b3c5 18be 6dbd a2be
000001e0: 2049 2c3e a229 453e f553 74be 6992 79bc
000001f0: 1012 b93b 1b33 c4bd 64f2 8b3d 0ad4 323e
0.17349263 0.08338788 -0.31440553 0.21221174 -0.045336172 -0.08534356 -0.23711559 -0.20194204
0.120254345 0.270593 0.22028899 0.40960523 -0.059100248 0.20695765 0.20734775 0.37450248
0.23197839 0.016332516 0.014681 0.28512076 0.189268 -0.15531026 0.027093267 0.17685345
0.20021231 0.22621949 0.01485408 0.08895207 -0.04383696 0.33099946 -0.09842311 -0.2597411
0.073284 -0.06937277 -0.2395185 0.29847598 -0.07064731 0.06671934 0.0033155621 -0.29390684
0.27971032 0.09645248 0.036594465 0.039880194 0.24023895 0.0650866 -0.12938747 0.2884027
0.26362497 0.27542776 0.023080619 0.14031488 0.16603686 0.036945626 0.08891632 -0.24271615
0.34296715 0.2953354 -0.060099754 -0.105937585 0.3427961 -0.33010218 -0.2529948 0.016679626
-0.08026988 0.033332255 -0.2574491 0.23729932 -0.31103307 -0.036292043 -0.31597733 0.13362692
0.21348597 -0.22778207 -0.027536431 0.060752545 -0.27961525 0.21126974 -0.0038625177 -0.25948107
-0.04102826 0.25785774 -0.22432946 -0.1442127 -0.22182274 0.0023916762 -0.23591615 0.25647116
0.028578352 0.13930592 -0.16130738 -0.22356172 0.14996502 0.11343276 0.3636866 0.116469175
0.07763553 -0.22009787 0.160442 -0.1309913 -0.23299041 0.28688714 -0.18383937 -0.18265757
-0.048661675 0.110875875 -0.32200256 -0.23353383 0.20854647 0.31044978 0.16355841 -0.35948548
-0.15511309 0.29760265 -0.16859575 -0.07126267 0.20616834 0.038809713 -0.14919166 -0.31785145
0.1682477 0.19254163 -0.23860152 -0.015232661 0.005647905 -0.0958006 0.06833342 0.17463699

conv2_1.4.bias f4 [16]
00000000: 12f1 68be 53a9 eabe 1f7c 34bd 2248 32be
00000010: cb68 203e 3763 b9be 6bda b93d 7a7d f8bd
00000020: bbbf b53d 212f 793a 78fd b63e 0573 42be
00000030: 52b1 143f 7bf1 b33e 060a b4bc a839 bfbd
-0.22748211 -0.4583231 -0.044063684 -0.17410329 0.15664975 -0.36208507 0.09074863 -0.12133308
0.0887446 0.0009505619 0.35740256 -0.18989189 0.5808307 0.35145172 -0.021977436 -0.09337169

pool2.weight f4 [8, 1, 7, 7, 7]
00000000: 72f4 f8bb 89e0 f5bc 37f0 00bd 634e 6abb
00000010: 6d35 22bd 4933 b0bc 317a fdbc fd01 8ebc
00000020: 8818 92bb a4c1 bfba 2dd3 c7ba c01f 483a
00000030: ed78 28bd dd51 1c3b d101 b6bb 3b7b 08bd
00000040: f4e9 463b 91a4 c1bc 23fd 08bb 0228 16bd
00000050: 3af8 febc 0933 473b f8d1 9a3b a03f 303c
00000060: 4b73 7abc 686b d9bc cdd7 ab3c 8d54 d6bc
00000070: d5a9 843b ca2b 2d3c accb a5bc 9a33 553b
00000080: 088e 5e39 2bc0 db3b d8b7 cdbc 2545 e9bb
00000090: 1dc7 c6b9 a364 43bc 9935 ee3c d62d 2d3d
000000a0: c921 533c 5ecf f33c 9591 283d 625d e43b
000000b0: 3cce 4e3c ada0 b43c b6f7 0b3d c1f4 1f3d
000000c0: a8e0 023b b6c6 0cbd d1c5 aebb b9b5 9fbc
000000d0: 6ad3 e2bb 0a26 fdbb 0141 c5bc 48c7 2abd
000000e0: f27e 2bbd 53b7 1fbd 6f59 47bd 3882 4bbc
000000f0: dd8c 6abc 53ec dcbc 952a 21bd b47b e6bc
00000100: f418 62bc cd94 8abc dae3 7c3b 8b88 1fbd
00000110: c248 cebc a94c 1dbd 7bb8 f5bc 1280 d8bc
00000120: 6dd6 323b c8ff 6cbb d58a d33b 4ae7 9a3c
00000130: 2d9f bb39 9088 e539 0ba2 bbbb 4c20 73bb
00000140: be54 0f3d c644 4dbc 8f00 48bc b193 46ba
00000150: 28dc 113d 1ddb 623c 4f84 b23c b067 913c
00000160: 2221 e83c 2160 953c ba43 893c b6c9 123d
00000170: c967 083d 78de c53c 392e b03c 14ff ee3c
00000180: 3380 123d f32a d43c 2dbe 773b e575 f1bc
00000190: 9daa b83b 6623 dbbb 9f47 c5bc bf62 e53b
000001a0: d1a6 3ebd 0b9a 54bd 1c1b 98bc 9525 45bc
000001b0: f472 0fbd 7d2f 05bd 5e0b e1bc 3624 20bd
000001c0: 87f7 2ebd 32b3 d3bb 36c0 a5bc baf9 88bc
000001d0: de62 17bd 8d6c 80bb 531e 11bc deae aa3b
000001e0: 9a75 e93b 07de 9d3c b3bd 4f3c e29a 80bb
000001f0: ad8a 4fbc fd81 04bd 194c 5b3c 9c3c 2cba
00000200: d2dd 14bc 905b 0ebc ac4c 7c3c 7667 153c
00000210: ea3d 6b3c 8548 c53c 6fa0 63bb a257 2b3d
00000220: a8b1 d83c 462b 9c3c b625 a73a 715f 043d
00000230: 8043 113d 31a8 583d 8b99 d63c ed81 713c
00000240: cc2d 3b3d 6723 683d d1db 893c 0d77 0ebb
00000250: b3f6 52bc 1b6a ddbb 5108 4b3b bda5 31bd
00000260: a725 2bbd e3c4 1cbd 301e 4dbd f76a 40bc
00000270: 27cc 86bb 7d30 69bc b781 17bd e53f 6cbc
00000280: f038 00bd 452b 2dbd 84b3 f7ba c5a6 2fbd
00000290: 0226 65bc 102b f6bc 9ba0 d7bc d483 793b
000002a0: cde8 d3bc 7f10 163c 4b99 60bc a16b aabc
000002b0: 5349 a53c 12cf 243c 3564 02bd cbf9 64bc
000002c0: 8efe de3c 8c68 433c e3db e53c a6e4 393c
000002d0: e755 05bc a0ee 8f3c d88e a73c a59a df3c
000002e0: d65d e43c 7139 bfbb 4ed1 9f3c d68c 053d
000002f0: bb29 393a fa59 0d3d f18b 4f3d 154e 403d
00000300: 4e5b 103d 9f33 053d 97c3 d53c 8d33 5a3d
00000310: b19a 35bc c989 b8bb b279 ddbc 2657 1bbd
00000320: ec68 e138 dabc ba3a de9b 3c3b a8b4 82bc
00000330: 344e f4bc 45a3 2fbd e4e5 15bc 20cb 01bd
00000340: 8997 a3bc b051 87bc a4b4 1cbc ba10 203b
00000350: 23ab e9bb 4c0a 19bd 2911 84bc 359b 1cbd
00000360: 70e8 35bd b7e3 90bc 5e29 273c 9420 99bb
00000370: 31c3 793c c1d9 1b3b eb4e 2a3c e155 95bb
00000380: 7f3e 1ebc f916 333c 2ff8 0dbc c25d 963b
00000390: 01c4 d53c 6689 50bb e3d5 5a3c 832d 5bbb
000003a0: 045e ccbb 8ae5 e63c 6769 e93c f71c 9c3b
000003b0: 2de6 013d 9de5 5b3c b2d0 4a3d fea9 5d3c
000003c0: 945b 213a 4d28 113c 8479 403c 5d44 2e3d
000003d0: aab4 203d c9ef cebc 5efe 84bc 21ed 43bd
000003e0: d0c5 3abd cfe1 55bc 9155 d8bb b7fc 30bd
000003f0: 3070 79bc 2e85 c83b 3780 85bb 8375 74bc
-0.0075974995 -0.030014293 -0.031479087 -0.0035752289 -0.039601732 -0.02150883 -0.030942054 -0.017334932
-0.0044584908 -0.0014629853 -0.001524543 0.00076341256 -0.04113095 0.0023852505 -0.0055544158 -0.033320647
0.003035185 -0.023638042 -0.0020902834 -0.03665925 -0.031124223 0.003039541 0.0047247373 0.010757357
-0.015286277 -0.026540473 0.020976925 -0.026163364 0.004048566 0.010569522 -0.02023872 0.0032531978
0.0002122448 0.006706258 -0.025112078 -0.0071188384 -0.00037913854 -0.011925849 0.029078292 0.04228004
0.012886473 0.029761966 0.041154463 0.00696914 0.012622412 0.022049272 0.034171782 0.039051775
0.0019970331 -0.034369193 -0.00533364 -0.019495832 -0.006922175 -0.007725482 -0.024078848 -0.041693956
-0.04186911 -0.03899319 -0.048669275 -0.012421183 -0.014315811 -0.026968157 -0.03934725 -0.028135158
-0.013799895 -0.016916657 0.0038587959 -0.038948577 -0.025181178 -0.038403187 -0.029995194 -0.026428256
0.0027288452 -0.00361632 0.006455759 0.018909115 0.00035786015 0.0004378003 -0.005726104 -0.0037098108
0.034992926 -0.012528604 -0.012207164 -0.00075751083 0.035610348 0.013846186 0.021791605 0.017749637
0.028336111 0.018234314 0.016755927 0.035836898 0.033302102 0.024153933 0.021506416 0.029174365
0.03576679 0.025899386 0.0037802563 -0.029475162 0.005635573 -0.0066875694 -0.024082003 0.007000297
-0.046545807 -0.05190472 -0.018567614 -0.012032886 -0.035021737 -0.03251599 -0.02747124 -0.039097033
-0.04271653 -0.0064605707 -0.020233255 -0.016720641 -0.03695952 -0.0039191903 -0.0088573275 0.005208834
0.007124615 0.01927091 0.012679505 -0.0039247135 -0.01266734 -0.03235053 0.013384842 -0.0006570311
-0.009086089 -0.008688822 0.015399139 0.009118905 0.014358023 0.024082432 -0.0034733077 0.04183162
0.0264519 0.019063603 0.0012752328 0.032317583 0.035464764 0.052894775 0.026196262 0.014740449
0.045697972 0.056674387 0.01682845 -0.002173844 -0.0128762005 -0.0067570335 0.0030980299 -0.04337095
-0.041783955 -0.038273703 -0.050077617 -0.011744252 -0.0041136923 -0.014232752 -0.03698894 -0.0144195305
-0.0313043 -0.042277593 -0.0018898104 -0.042883653 -0.013986113 -0.03004983 -0.0263217 0.003807296
-0.025867844 0.009159206 -0.013708423 -0.020803275 0.020176565 0.010059135 -0.031833846 -0.013975571
0.02722099 0.011926781 0.028058952 0.011346018 -0.0081381565 0.01756984 0.020453855 0.02729542
0.027876776 -0.005835705 0.019508984 0.032605015 0.0007063408 0.034509636 0.050670568 0.046949465
0.035243325 0.032519933 0.026094241 0.05327182 -0.011084245 -0.0056316596 -0.027035568 -0.037924908
0.00010748379 0.0014246956 0.0028779428 -0.015955284 -0.029822446 -0.042880315 -0.0091490485 -0.031687856
-0.019969719 -0.016518444 -0.009564552 0.0024424032 -0.007130997 -0.037363335 -0.016121464 -0.038233954
-0.044411123 -0.017686708 0.010202734 -0.004673073 0.015244291 0.0023780914 0.010394792 -0.0045573567
-0.009658455 0.01093077 -0.008665129 0.0045888135 0.026094439 -0.0031820177 0.013356659 -0.0033443875
-0.0062367935 0.028185625 0.028492643 0.004764195 0.031713653 0.013421443 0.049515434 0.013529299
0.0006155309 0.008859706 0.011747722 0.042545665 0.039234795 -0.025260823 -0.016234573 -0.047833566
-0.045598805 -0.013054325 -0.006601997 -0.043209758 -0.0152245015 0.006119392 -0.0040741223 -0.014920595

pool2.bias f4 [8]
00000000: 56f4 56ba 4b3a 82ba afff 423b b543 ef3a
00000010: 1d33 8e3c 4c44 44bd c33a 06bd e961 96bb
-0.0008199861 -0.0009935586 0.002975445 0.0018254431 0.017358357 -0.047916695 -0.032770883 -0.0045893085

reduction2_2.weight f4 [16, 8, 1, 1, 1]
00000000: 0ea6 f6bd 669e 6cbe 72be 1ebe ed18 06bd
00000010: 6e58 31be d4f7 753e cc40 de3d b62d f33c
00000020: 37ca 8d3e e44d 9d3e 6940 583e 6aac b83d
00000030: dc34 553e 1154 cebd 8526 89be b553 443e
00000040: 89c5 3a3c a318 92be e6dd 563d 1580 7cbe
00000050: 2386 c4bd 8906 393e e38e 0e3e 0746 233e
00000060: b27e d83c e839 273d a14e 8c3d 6518 62be
00000070: 183c 8b3e 052b 07be 8759 6bbe c696 903e
00000080: 4469 99be 0a21 dbbd b835 66bc b229 5a3e
00000090: d8fd 8cbb 2429 98be 71f8 8bbe 04db 6cbe
000000a0: 2e67 a7be 3748 5fbe a0bf a5be 1fa7 dd3d
000000b0: 12fd dfbd d35d 983e 3cb8 e03d 3508 48bd
000000c0: 63f5 813d 6c83 bf3c 7382 373e 506c 80be
000000d0: 9507 3cbe 387e a33e 2eca 893e 3417 a1be
000000e0: e7b7 a3bd aa40 773e 9bbe 803e 1afe a0be
000000f0: b1fb 91be 8d0b ac3d d5e8 5e3e f360 f5bd
00000100: f0d4 62be 410e 413e 7e84 c73d c7ef 48be
00000110: 1955 22be f2cf 5f3d 14b1 793e 8de0 50bd
00000120: 4bed 993e ef9f 9b3e 024c 8d3e d74a 903e
00000130: a0ca 973e cec8 83be bbac 343e c630 3ebd
00000140: 0759 5f3e f7cf 3dbe 8f61 473c de90 943e
00000150: 4407 de3d 2bfd 92bc 8857 89be 541b 98be
00000160: d21c 01be 6da0 5a3c f907 0e3e acf5 983c
00000170: 09a2 0f3e a63e adbd ef84 323e e35e 3b3e
00000180: 7750 88bd 3bca b23d 1bfb a53b 0e2d f2bb
00000190: 77f8 babd 68a4 6fbe 0bf3 8a3e 865d 893e
000001a0: 73c3 843e 5947 353e 5ac6 293e 5f41 e53c
000001b0: 9d09 02bd d552 e4bd eb63 033d 2fa5 453e
000001c0: 84c3 363e e5f5 9abe 6445 de39 e1d8 803e
000001d0: 97c0 0ebe 8240 27be 7070 9fbe dd41 80be
000001e0: 30b3 9abe 6b4e 683e 374e 073e d574 07bd
000001f0: afbd 1d3d 3dbe 833c 17fb ca3d a53a 6ebe
-0.12043391 -0.23107299 -0.15502337 -0.032738615 -0.1731889 0.2402032 0.10852203 0.029684883
0.2769334 0.30723488 0.2111832 0.090172604 0.20820946 -0.10074628 -0.267872 0.19172557
0.011399635 -0.2853442 0.052457713 -0.24658234 -0.09595897 0.18068899 0.13921694 0.15944682
0.0264276 0.040826708 0.06850935 -0.22079618 0.27194285 -0.13200004 -0.2298337 0.2824003
-0.29963124 -0.10699661 -0.0140508935 0.21304968 -0.0043027215 -0.29718888 -0.27337983 -0.23130423
-0.32695907 -0.21804892 -0.3237276 0.108228914 -0.10936941 0.29759082 0.1097264 -0.04883595
0.06345632 0.023378097 0.17920856 -0.25082636 -0.18362267 0.31932235 0.26912063 -0.31463015
-0.07994061 0.24145761 0.2514542 -0.31443864 -0.28512338 0.08400641 0.21768506 -0.11981382
-0.22151542 0.18853094 0.09742068 -0.19622718 -0.15852775 0.05464167 0.24383956 -0.0509954
0.30063853 0.30395457 0.27597052 0.28182098 0.29646778 -0.2573914 0.17644016 -0.046433233
0.21811305 -0.18536364 0.012169256 0.29016775 0.108412296 -0.017942986 -0.26824594 -0.2970835
-0.1260865 0.013343913 0.13870229 0.018671833 0.14026655 -0.08459215 0.17433523 0.18297915
-0.066559725 0.08729979 0.0050653345 -0.007390625 -0.09129422 -0.2340256 0.27138552 0.26829165
0.25930366 0.17702998 0.16579571 0.027985273 -0.03174745 -0.111486115 0.03207771 0.19301294
0.17848021 -0.30265728 0.0004239484 0.25165465 -0.13940655 -0.16333202 -0.3114047 -0.2505025
-0.30214834 0.22686164 0.1321343 -0.033070404 0.038510974 0.016081924 0.09911173 -0.23264559

conv2_2.0.weight f4 [8, 8, 1, 1, 1]
00000000: ddcc 8e3e 9a0a d3bd f48d 8fbd 246c 2fbe
00000010: 4730 15be 77fd e83c 051e 8bbe d170 9ebe
00000020: 6dc1 d13d 5734 83be 934b 50bc 451a b9bd
00000030: 385b 4e3d a363 41be e855 a5be 1981 a9be
00000040: 1be5 42bb 7712 553e c9a7 7fbe 6c5e b33e
00000050: 9145 ee3c 34b3 853e 76af 97be 29fc a2be
00000060: 0322 aa3d 7c4f 433e 1b1a bb3e ce3e 58bd
00000070: 397a a2be 6c69 8dbe 81ef 323e ee9a 26be
00000080: 2a0b ad3e 8975 b4be 2b37 a8be c12c 5bbd
00000090: 1e3e a53e 4377 a33d 1c9b b7be 0d41 afbe
000000a0: be05 17be 20f5 fb3d c757 fb3d 58ec 9abe
000000b0: f54c 663e 92df 223e dc15 cc3d 98c8 6f3d
000000c0: 5f26 4e3e 466b a93e 2566 35be e7f6 91be
000000d0: f291 80bd b16b bfbe fce6 983e 2cb8 fb3d
000000e0: 980f 823e b5fd 77be c9e9 053e 93bb 983e
000000f0: f502 663e 9440 15bd e7b2 45be 3ee8 2dbe
0.27890673 -0.103047565 -0.07009497 -0.17131096 -0.14569198 0.028441174 -0.2717134 -0.30945447
0.10241971 -0.2562587 -0.012713331 -0.09038214 0.05037996 -0.18885665 -0.32292104 -0.33106306
-0.0029738608 0.20807825 -0.24966349 0.35032976 0.029085906 0.26113284 -0.29626054 -0.31833008
0.083072685 0.1907329 0.36543354 -0.05279427 -0.31733873 -0.27619493 0.17474176 -0.16270038
0.3379758 -0.35245922 -0.3285459 -0.053509478 0.32273954 0.07981732 -0.35860527 -0.34229317
-0.14748284 0.12302613 0.122726016 -0.3025844 0.22490294 0.15905598 0.09965107 0.05854091
0.20131825 0.33089656 -0.17714746 -0.28508684 -0.06277837 -0.3738685 0.29863727 0.12290987
0.25402522 -0.24217875 0.13077463 0.29830608 0.22462066 -0.03643854 -0.19306527 -0.16983125

conv2_2.0.bias f4 [8]
00000000: c503 7d3e 7aa0 38be ce96 903e f0d9 26be
00000010: b346 973e e04d 0cbe d0c4 dd3d 3e9a 2fbd
0.24708469 -0.18029967 0.28240055 -0.16294074 0.29546127 -0.13701582 0.10828555 -0.042871706

conv2_2.2.weight f4 [8, 8, 3, 3, 3]
00000000: f2e1 a43d 2bb1 6ebc 1700 23bd 0601 8a3d
00000010: d1d5 3cbd 3fbc 4dbd 423e 5a3d 0107 653c
00000020: b31c 46bd 2286 153d bbd6 53bd a655 873c
00000030: 21e1 593d 3e96 05bc 0a2b 8bbd 16db e4bc
00000040: 025e 2bbc cf7f 02bd 1daa 223d 099b d6bc
00000050: d87e a43d ed3d 88bd e700 173d 0362 223c
00000060: 20e5 033d 6964 36bd 8aa6 8abc 5c53 bf3b
00000070: e821 093c 96d5 573d 345a 53bd 3350 41bd
00000080: 63ce 3b3d f2c6 84bd 0810 9a3d 8981 fe3c
00000090: cfb2 563d 4e94 08bd 8910 6f3d 56d4 9a3d
000000a0: 96c8 7d3d 4ccc eb3c cd3f ec3c 6cba 72bd
000000b0: 3dc4 52bc 4e72 773b d564 e73c f58d c03c
000000c0: ed4f 25bd 68ab 7dbd 3063 6bbd 1e26 523d
000000d0: e0b8 783d a76d 903d c59e 673d 5904 87bd
000000e0: 5139 d0bc e4ff 213d c859 4dbd 44aa 373d
000000f0: c2e2 433d 204a 583d ee1b 4a3c dffa 89bd
00000100: 8050 843c 0401 fc3c cf15 9bbd 77f1 043d
00000110: b816 adbc 6f9c 983c ae8c 84bc 2ccb f2bc
00000120: 0729 9b3d 44e8 2cbd 9758 383c 1fb0 51bd
00000130: 1352 f8bc df23 c9bc 53a9 ae3c 3ed9 20bb
00000140: c4d3 523d 16ee a93b 5f7c 9dbb 874d 43bb
00000150: 806b 6a3d 441a 3f3d 1240 83bc 9abd 91bd
00000160: 5ff3 323d 3101 40bd 0cb1 893a 2af1 cabc
00000170: 2600 883d 4644 2b3c e1f9 8e3c 0dc8 0b3d
00000180: f568 913d 2f0d b53b 3f9f c03c 81b2 393d
00000190: 75c2 233d 60df 61bd ff8d 213d 7f5c 92bd
000001a0: 3288 733d 0d5f a6bc 9ecb 473d 18c1 c5bc
000001b0: 678e 583d fddc 3c3d b18b 713d 9d26 85bd
000001c0: 96c7 81bc 38c9 953c 6d5b a6bd 477e 96bd
000001d0: 3efb 883c ecb9 a93d a72b ca3c fa01 393c
000001e0: 4800 b8bc 8fbd 59bd 8f04 893c 9fe3 a1bb
000001f0: a2f9 89bd 3b69 a3bd 1fac 84bc c5d0 613d
00000200: 8d38 9f3c 7987 95bd 2f40 8bbc 997d 8a3d
00000210: 0313 cebc 42dc 873d 13cd 633c 10a7 86bd
00000220: e58e 133d 3d5b 283d 90c5 7cbd f8d2 103d
00000230: 2ceb 2a3c ae21 dc3b 3746 cbbc 34b1 973d
00000240: 1cc0 2dbd 5244 94bb 0c34 86bc 3ae2 223d
00000250: f7ec 7fbd 4cd8 91bd 4344 6c3d 03b2 183c
00000260: c622 8fbd 2d10 31bd c10d 8bbd 1d30 433d
00000270: 8726 1fbd 57cd 8dbd 4f23 fdbb a7e8 93bd
00000280: 4784 713d e747 6abd 3d33 c8bc 24c0 bbbc
00000290: aaeb 1bbd c418 703d 778e 9c3d d9eb 1c3d
000002a0: ef85 0e3d f3af acb9 26d3 97bd 9344 fdbc
000002b0: f823 91bd 640f 05bd 2235 c43b da3d 6fbd
000002c0: 9136 5d3d 86e4 3f3d 5139 903c b997 61bc
000002d0: 922b 88bd 6103 823d 3d38 133d 9ef3 213d
000002e0: a98e cebc 952a a93c c96c 893b 229d 5bbd
000002f0: ed0b c53b 12a1 10bd e4a3 963d 6161 8ebd
00000300: dce4 41bd 6cc3 90bc 28ac 90bb b6e5 0abd
00000310: 2b5c 7bbd a8a1 81bc 5719 5ebd fd2c 3abb
00000320: e014 7d3d 50b2 d83c 5c99 5b3d 512a 2f3d
00000330: 381d 2abd 01a2 8f3d 8435 573c 1ae7 3a3d
00000340: efe0 66bc 9056 99bc e9e8 913d 00e9 1a3d
00000350: a1d1 3e3c 7a18 803d 3305 07bd f84d 2abd
00000360: 3d65 e33c f0c0 3b3d d855 99bd 619f e63c
00000370: 4ef0 1e3d c892 863d eade 8e3d 8c99 833d
00000380: faaf 5fbd 17a8 d33c a621 79bd 90e7 653c
00000390: 53aa 87bc 29f2 a83d f31f 743d 5724 8c3d
000003a0: 6452 2ebd 41d9 e1bc 629f 603d d26b 81bc
000003b0: 7c5f b53c 1ddf 85bd 0c8a a93d 4285 353d
000003c0: 4f07 3a3d 273a 473d 2764 1e3d eeed 013c
000003d0: f3a8 2d3d 662e 5b3b 43d3 1bbc dda3 39bc
000003e0: fd13 0dbc 32d0 7d3a da43 83bc 84ab 623d
000003f0: 2e27 773d 735e 3d3d 6e0c f43b c2fc e7bb
0.08050908 -0.014568607 -0.039795008 0.067384765 -0.04610235 -0.050228354 0.05328203 0.013978721
-0.048367213 0.036504872 -0.051718455 0.016520333 0.053193215 -0.008153496 -0.067953184 -0.0279365
-0.010459425 -0.03186017 0.039713014 -0.026196973 0.08032006 -0.066524364 0.036866095 0.009911063
0.032200933 -0.044529352 -0.016925115 0.0058387946 0.0083699 0.052693926 -0.051599696 -0.047195625
0.045851123 -0.06483258 0.07522589 0.031067627 0.05241662 -0.03334456 0.05836538 0.07560031
0.06195887 0.02878394 0.028839016 -0.059259817 -0.01286417 0.003775734 0.028246323 0.02350519
-0.040359426 -0.061931044 -0.05746764 0.051305883 0.060723186 0.070521645 0.0565479 -0.06592626
-0.025417956 0.039550677 -0.05013445 0.044840112 0.047823675 0.052805066 0.0123357605 -0.06737303
0.016151667 0.030762203 -0.07572519 0.03245684 -0.021128997 0.01862928 -0.016180363 -0.029637896
0.07576185 -0.042213693 0.01125159 -0.051193353 -0.030312574 -0.024553237 0.021320974 -0.002454355
0.051471487 0.0051858528 -0.004806086 -0.0029800849 0.057231426 0.04665591 -0.016021762 -0.07116242
0.043689128 -0.046876136 0.0010505035 -0.0247732 0.06640653 0.010453289 0.017453136 0.03412633
0.07100097 0.0055252532 0.023513434 0.04533625 0.03998037 -0.055144668 0.03944206 -0.071465485
0.059456058 -0.020308996 0.04877817 -0.024139926 0.05287018 0.04610919 0.05897111 -0.065015055
-0.01584224 0.018284425 -0.08122907 -0.07348304 0.016721364 0.08287415 0.024679018 0.011291975
-0.022461072 -0.053159293 0.016725807 -0.0049404646 -0.06737067 -0.079790555 -0.016195355 0.05513074
0.019436145 -0.0730123 -0.016998379 0.06762237 -0.02515555 0.06633808 0.013903874 -0.065748334
0.036024947 0.041102637 -0.061711848 0.035357445 0.010432046 0.006717882 -0.024813754 0.07406846
-0.042419538 -0.004524746 -0.01638224 0.039766528 -0.062481847 -0.071213335 0.057682287 0.009319785
-0.069890544 -0.043228317 -0.06789733 0.047653306 -0.038855102 -0.06923931 -0.0077251564 -0.07222109
0.05896404 -0.057197478 -0.024438495 -0.022918768 -0.038066544 0.05861737 0.076443605 0.03831086
0.034795698 -0.0003293749 -0.0741332 -0.030916488 -0.070869386 -0.03248538 0.0059877792 -0.058408596
0.054007117 0.046848796 0.017605456 -0.013769084 -0.066489354 0.06348301 0.035942305 0.039538972
-0.02521451 0.020650188 0.0041938764 -0.05361665 0.0060133846 -0.03530986 0.073554784 -0.06952167
-0.047337398 -0.01767131 -0.004415054 -0.033910476 -0.061367195 -0.015824154 -0.054223385 -0.0028408163
0.061787486 0.026452214 0.05361305 0.042764965 -0.04153177 0.07013322 0.013135318 0.045630552
-0.014091714 -0.018718034 0.07124502 0.037819862 0.011646659 0.062546685 -0.032963943 -0.041578263
0.027758235 0.045838296 -0.074870765 0.02815217 0.03880339 0.06570965 0.06976111 0.06425771
-0.054611184 0.025836987 -0.060823105 0.01403226 -0.01656071 0.082493134 0.05960078 0.06842869
-0.042559043 -0.027569415 0.0548395 -0.015798483 0.022140257 -0.06536696 0.082782835 0.044316538
0.045417126 0.048639443 0.03866973 0.007930262 0.04239745 0.0033444404 -0.009510818 -0.011330572
-0.008610723 0.00096822076 -0.016023565 0.05533935 0.0603401 0.046232652 0.007447771 -0.0070796916

conv2_2.2.bias f4 [8]
00000000: 5e93 34bd 1ae6 803d 0ac7 3e3d 02d0 15bd
00000010: 346e 87bc ee58 0b3d 0148 f4bc cd4f 8ebc
-0.044085853 0.062938884 0.046576537 -0.036575325 -0.016532041 0.034020357 -0.02981949 -0.017372036

conv2_2.4.weight f4 [16, 8, 1, 1, 1]
00000000: 1b32 50be 852e 9abe 2ff9 6dbc 65ab 76be
00000010: bb46 50be a7c2 cdbc 4ed4 87be 62bd 863e
00000020: e67a 803e 582f 04be db92 a0be ac1f 6fbb
00000030: 9515 a23d ba68 83bd 74e7 97be a499 f43a
00000040: dc80 813e 90d9 873e 2e86 513e 6333 36be
00000050: 57c1 1cbe e89d 35be 7e8a 5dbe 0855 c4be
00000060: 6464 eb3d 3084 903e 6796 983e 8c0b 9b3e
00000070: cc01 463e cba7 5c3d 6a87 b9bd 7287 8c3d
00000080: 355a 37be 217f 1d3e 870a a5bd fb1e e4bc
00000090: e8d5 733d d32a a33e 89dd e43d 6b73 a0be
000000a0: 5959 3b3e 2280 6d3e c9b6 413e 4750 8fbe
000000b0: 950c 543e ecc5 8abe 2cc0 983d 0daa a43e
000000c0: 261f 5e3c 8e12 74be ae5d 85bb cced ec3d
000000d0: 76fa 243e 6e26 60be 3821 9fbe f864 523d
000000e0: 5283 0abd d232 80bd b99e 89be c5de febc
000000f0: 4308 8abe 4218 423e d1b9 693e b890 4d3d
00000100: bf97 54be cd00 8f3d 1092 5a3e 3d3d 33bd
00000110: ce63 603e bfae 0bbe 2b54 943e bf64 5ebe
00000120: af90 8f3e 9b12 ab3e 2198 3d3e cbb6 d33d
00000130: 757b e4bd b5cb 0bbd 097d 71be b888 92bc
00000140: 41f0 2dbe d440 8c3d d010 153e 51c8 b7bd
00000150: d071 40be 82a0 e4bd a42d 8abc 8dcf bf3e
00000160: 5906 e63d a282 b1bc dfed 78be 2777 893d
00000170: 8009 3abe 9547 d13d 2c60 233d a09d 9c3e
00000180: c949 86bd 413d 81be e71c 6c3e 9fcf 3bbe
00000190: 1aad 73be 23e9 0fbe f347 a0bd d027 3fbb
000001a0: 371d 593e 5b3f 7fbd d0cb 913e 3b76 a4bd
000001b0: 1cb4 543d 1e53 633e bafb 8f3e 92a3 1dbe
000001c0: e04e 6abe 37dd 4e3e 24e3 a03e eaea 41bd
000001d0: 5fcc 41be 65e0 e93c dd48 86be 2197 cc3b
000001e0: 813d 91be 15e6 953e 39f3 103d 1da0 833e
000001f0: 8359 bc3c e0ef 23be 2fc6 c6bd 88a5 923e
-0.20331614 -0.30113617 -0.014524742 -0.2408882 -0.20339482 -0.025117232 -0.26529163 0.26316363
0.25093764 -0.12908685 -0.31362042 -0.0036487384 0.07914273 -0.064164594 -0.29668772 0.0018661511
0.25293624 0.26533175 0.20461342 -0.1779304 -0.15308128 -0.17736018 -0.21634862 -0.38346124
0.11493757 0.2822585 0.29802248 0.30282247 0.19336623 0.053870957 -0.09059031 0.06861772
-0.17905505 0.15380527 -0.080586486 -0.027846804 0.05953017 0.3186861 0.11175067 -0.31338057
0.18295802 0.2319341 0.18917383 -0.27990934 0.20707925 -0.27104127 0.07458529 0.32160988
0.013557231 -0.23835203 -0.0040700054 0.11568794 0.16111168 -0.2188966 -0.3108003 0.051365823
-0.033816643 -0.06259693 -0.26878908 -0.031112084 -0.26959428 0.18954566 0.2282479 0.050186843
-0.20761012 0.069825746 0.21344781 -0.043759573 0.21913072 -0.13640879 0.28970465 -0.21718119
0.28040072 0.33412632 0.18515064 0.10337599 -0.1115636 -0.034129817 -0.23582853 -0.017887458
-0.16986181 0.068483025 0.14557195 -0.08973754 -0.18793416 -0.11163427 -0.016867466 0.37463036
0.112316795 -0.021668736 -0.2430949 0.0671218 -0.18167686 0.10218731 0.03988664 0.30589008
-0.06557042 -0.25242046 0.230579 -0.1834092 -0.23796502 -0.14053778 -0.07826223 -0.0029168017
0.21202551 -0.06231628 0.2847581 -0.08030363 0.05192958 0.22199675 0.2812174 -0.15394428
-0.22881651 0.20201574 0.31423295 -0.047343172 -0.18925618 0.028549382 -0.26227465 0.006243602
-0.28367236 0.292771 0.035388205 0.25708094 0.022991901 -0.16009474 -0.09705769 0.28641915

conv2_2.4.bias f4 [16]
00000000: d73b 3dbe 1ef0 163e ec2e a93e b1c7 f0bd
00000010: 0584 57be 6cf3 2a3e 22f7 69be 7c32 22be
00000020: f575 9dbd 7b64 3f3e ee6e 83bd d1b3 523e
00000030: ec16 7d3e b115 d43c 328e 7cbc 6fff 193e
-0.18479858 0.14740035 0.3304361 -0.11756838 -0.21046455 0.1669442 -0.2284818 -0.15839571
-0.07688514 0.18690674 -0.064176425 0.20576407 0.24715775 0.02588925 -0.015414761 0.15038846
